all-window10-lag200-cnn-tf.tflite (tflite, 286740 bytes, 8 tensors)

std.constant1 f4 [16]
0	0xbe2a2fba	-0.16619769
1	0xbc7b40f8	-0.015335314
2	0x3da972ab	0.08273824
3	0xbdc6d73b	-0.09709021
4	0x3e055e40	0.13024235
5	0x3e29d8ab	0.16586559
6	0xbcc92d08	-0.024557605
7	0x3e233b91	0.15940692
8	0xbdd3ea9f	-0.10347485
9	0x3e18aa0c	0.14908618
10	0xbe67cc85	-0.22636612
11	0x3df11b66	0.11772804
12	0xbcc3193c	-0.023815744
13	0xbd4848d1	-0.048897568
14	0x3e0cdc3c	0.13755888
15	0x3e37e1f6	0.17957291

std.constant2 f4 [32]
0	0x3af79dde	0.0018891653
1	0x3da54555	0.08069865
2	0x39b3f60c	0.0003432486
3	0x3c2b26d7	0.010446272
4	0xbd0399cb	-0.03212909
5	0xbb0696c2	-0.0020536636
6	0x3b43b7d2	0.0029864204
7	0x3c8b9e44	0.01704324
8	0xbb943322	-0.004522697
9	0x3ccf617e	0.025315043
10	0x3cc00043	0.023437625
11	0xbd874d55	-0.06606547
12	0xbd1c3645	-0.038137693
13	0x3a4c8321	0.0007801522
14	0x3c5d5129	0.01350812
15	0xbcd95fc2	-0.026534919
16	0x3d148a14	0.036264494
17	0xbcac48f9	-0.02103089
18	0xbd05f4e5	-0.032704253
19	0xbd8ab564	-0.06772879
20	0xbd434707	-0.04767516
21	0xbd40ab4b	-0.047038358
22	0x3d33071c	0.043707952
23	0xbc306fc0	-0.010768831
24	0x3c57b23d	0.013165054
25	0x3d46ec22	0.048565038
26	0xbd2fbf4d	-0.042907048
27	0xbd05c873	-0.032661866
28	0x3c370131	0.011169718
29	0x3c91b34a	0.017785687
30	0xbd193db0	-0.037412345
31	0xbc7dcea6	-0.015491163

std.constant3 f4 [64]
0	0xbc637e07	-0.013885028
1	0xbb322284	-0.0027181217
2	0xbcf5f39a	-0.030023385
3	0xba09122b	-0.00052288425
4	0x3d33a6d9	0.04386029
5	0x3d758c1a	0.059948064
6	0x3d25a68b	0.04044203
7	0x3c031203	0.0079999
8	0xbad84e03	-0.0016502741
9	0xbc8b799c	-0.017025761
10	0x3d8db5a0	0.06919408
11	0x3d35a594	0.04434736
12	0xbd31f001	-0.043441776
13	0x3d150f40	0.036391497
14	0xbc70e276	-0.01470243
15	0xbd0a7791	-0.033805434
16	0x3cab5dcb	0.020918747
17	0x3cf7ebb7	0.030263765
18	0x3ce3489d	0.027744586
19	0x3ceaac0d	0.028646493
20	0x3d1b1bef	0.037868436
21	0x3d85b606	0.06528859
22	0xbb82d22c	-0.0039923396
23	0xbcbe944d	-0.023264075
24	0x3c9c4839	0.019077407
25	0x3d51754c	0.051137254
26	0xbcf7249e	-0.030168828
27	0x3d3abd2f	0.045590576
28	0xbd26184c	-0.040550515
29	0x3d0abad4	0.03386958
30	0x3d641ed0	0.055693448
31	0xbbf1ae89	-0.0073755425
32	0x3d5987aa	0.053107895
33	0x3d06f3d1	0.032947365
34	0xbc056f94	-0.008144278
35	0x3cc80265	0.024415204
36	0x3dc49c7f	0.09600162
37	0xbd1b2f36	-0.03788682
38	0x3c153f69	0.009109356
39	0x3d614c48	0.055004388
40	0x3d8a49ae	0.067523345
41	0x3cca4360	0.02469033
42	0xbd015e6d	-0.031584192
43	0xbd155b8f	-0.03646427
44	0x3cb17751	0.02166334
45	0xbcd35588	-0.02579762
46	0xbcfc23d3	-0.030778801
47	0xbce265ae	-0.027636375
48	0xbafdbd07	-0.0019358703
49	0x3d0d263e	0.0344603
50	0x3c1ac352	0.009445982
51	0x3bf69b15	0.0075258114
52	0x3d0118d7	0.03151783
53	0x3c780354	0.015137512
54	0x3ccce99b	0.025013736
55	0x3d15d52d	0.036580253
56	0x3d2ea0b9	0.042633746
57	0xbb34473e	-0.0027508284
58	0x3c94ca36	0.018162828
59	0xbd18071f	-0.037116166
60	0x3c4e0bc2	0.0125760455
61	0xbd26b0c4	-0.04069592
62	0xbd0ecad8	-0.034861416
63	0x3d5aab71	0.053386156

std.constant4 f4 [2]
0	0x3b9dd078	0.004816111
1	0xbb82ef7c	-0.003995834

std.constant8 f4 [2, 3136]
0	0xbb620582	-0.0034488146
1	0x3c6f8523	0.014619145
2	0xbbd5f56e	-0.0065295016
3	0x3b6eed4a	0.0036457353
4	0xbac64213	-0.0015125893
5	0x3d03a811	0.032142702
6	0xbb0dcb8f	-0.0021636223
7	0xbb80fd78	-0.003936466
8	0xbb7d9381	-0.0038692656
9	0xbaf39c81	-0.001858607
10	0x3c816c0a	0.015798587
11	0xbb59bde5	-0.0033224758
12	0x3ca59c2f	0.020216076
13	0xbc573e4f	-0.013137414
14	0x3c0ce12d	0.008598608
15	0x3c87ac74	0.016561724
16	0x3c827126	0.015923094
17	0x3c5c1d83	0.0134347705
18	0x3c222ba3	0.009898099
19	0x3d0a4152	0.0337537
20	0x3c337e6c	0.010955434
21	0x3c1824e1	0.009286136
22	0xbbd35921	-0.006449834
23	0x3b04094a	0.0020147138
24	0x3b0ecfdc	0.0021791374
25	0xbc210d57	-0.009829841
26	0x3b5defb1	0.003386479
27	0xbcfefbf8	-0.031126007
28	0x3b88a23a	0.0041697295
29	0xbba2a68a	-0.0049637007
30	0xbc39e989	-0.011347183
31	0x3bad4d87	0.005288783
32	0x3cc08b64	0.023503967
33	0x3bb2d2df	0.0054572667
34	0xbb2b8cb6	-0.00261764
35	0x3baa5c45	0.0051989877
36	0xbbb00dc5	-0.005372735
37	0xbc12dd25	-0.008963858
38	0x3b14f253	0.0022727444
39	0xbb7100a6	-0.0036774068
40	0xbbcdc970	-0.0062801167
41	0x3c4478cc	0.011991691
42	0x3acbdad9	0.0015552893
43	0xbb9d199a	-0.0047943117
44	0xbc022bd7	-0.007945023
45	0xbbe7ec1b	-0.0070777065
46	0x3bec9fe8	0.0072212107
47	0xbc0dc570	-0.00865303
48	0x3c826d95	0.015921393
49	0x3c27b064	0.010234926
50	0xbcac00be	-0.020996448
51	0xbda484ed	-0.08033166
52	0xbd06823f	-0.032839056
53	0x3bb6c656	0.0055778427
54	0xbd8f2ee6	-0.06991367
55	0xbdec0f2d	-0.11526332
56	0xbc91a05e	-0.017776664
57	0xbd691da7	-0.056913044
58	0xbcc297f9	-0.023754107
59	0xbc3ff472	-0.011715995
60	0x3bc157c9	0.0059003574
61	0xbd72fa95	-0.059321005
62	0xbd780a58	-0.06055674
63	0xbc4a4236	-0.0123448875
64	0xbd3a87bd	-0.045539606
65	0xbd131795	-0.03591116
66	0x3bbcd01f	0.0057621147
67	0xbccac48a	-0.02475192
68	0xbcd9a8e8	-0.026569799
69	0xbd0b29c0	-0.033975363
70	0xbca8d6bc	-0.020610206
71	0xbd98328e	-0.074315175
72	0xba4c88ba	-0.0007802356
73	0x3d3101fb	0.04321478
74	0xbc30bbf2	-0.010786997
75	0xbd370471	-0.04468197
76	0xbd4f3ac3	-0.05059315
77	0xbd91dd5e	-0.071223006
78	0xbcf95707	-0.030437006
79	0x3d7bf412	0.06151206
80	0x3da42938	0.08015674
81	0x3d00a448	0.03140667
82	0xbd4a5ee7	-0.049406912
83	0xbd07d890	-0.033165514
84	0xbd74148a	-0.0595899
85	0xbc8e66c7	-0.017382992
86	0x3da5dcc8	0.08098751
87	0x3da42c28	0.08016235
88	0x3c6d5742	0.014486136
89	0xbd2e3db0	-0.0425393
90	0xbb144daf	-0.002262931
91	0xbd4b00a4	-0.049561158
92	0x3d494fcc	0.049148366
93	0x3dfa865a	0.12232657
94	0x3d54ff28	0.05200115
95	0xbd5f911c	-0.054581746
96	0x3c94b7f9	0.018154131
97	0x3c0f1e87	0.008735306
98	0x3cc2d59a	0.023783494
99	0xbc251638	-0.010076098
100	0x3b818b00	0.0039533377
101	0x3c40f4a3	0.011777076
102	0x3b9896d7	0.0046566534
103	0x3c364c6e	0.011126621
104	0x3beedbf8	0.007289406
105	0x3c9fc4e1	0.019503059
106	0x3b3a879c	0.0028462177
107	0xbb374037	-0.002796186
108	0xbc12007a	-0.008911246
109	0xbc774c8e	-0.015093936
110	0x3b4e98ee	0.0031524259
111	0xbb80121c	-0.003908409
112	0x3be586e1	0.007004604
113	0x3b9f9af4	0.004870767
114	0x39360db7	0.00017361982
115	0xbc12eea5	-0.00896803
116	0x3bf29c7c	0.0074039083
117	0xbb797ba7	-0.0038068087
118	0xbba8823c	-0.0051424783
119	0xbb2697ed	-0.0025420145
120	0x3aab3b04	0.0013063853
121	0x3c85a347	0.016313208
122	0x3c642c6e	0.0139266085
123	0x3c30ad33	0.010783481
124	0xbbf1966a	-0.007372667
125	0x3bd4ec37	0.0064978856
126	0x3b31bbc1	0.0027119967
127	0xbc1a59de	-0.00942084
128	0xbb81ba2a	-0.00395896
129	0xbbe0fc5a	-0.00686602
130	0xbb5fcfa5	-0.0034150865
131	0xbc2df467	-0.010617352
132	0x3b085937	0.002080513
133	0x3c3c13d3	0.011479336
134	0xbbfbea0a	-0.0076878117
135	0xbc62e8b8	-0.01384943
136	0xbc39ddd3	-0.011344391
137	0xbc636d43	-0.0138810305
138	0xbbcc0b3c	-0.006226925
139	0x3c185dbc	0.009299692
140	0xbc540c5e	-0.012942402
141	0xbd09000b	-0.033447307
142	0xbae9c36e	-0.0017834732
143	0xba2d874a	-0.0006619586
144	0xbc81e42b	-0.01585587
145	0xbc0f9980	-0.008764625
146	0x3c94af85	0.0181501
147	0xbce19079	-0.02753471
148	0x3d0bcd02	0.034131058
149	0x3c8c7fba	0.017150749
150	0xbc9ff17a	-0.019524325
151	0xbc4725e8	-0.012155034
152	0x3c42acbe	0.011882005
153	0xbcc211fe	-0.02369022
154	0xbd8c685e	-0.06855844
155	0xbc93712b	-0.017998299
156	0x3cbb7766	0.022884082
157	0x3baaf4d1	0.0052171727
158	0xbc95d76c	-0.018291198
159	0xbd10edde	-0.035383098
160	0xbce852c5	-0.02835978
161	0xbca63ce5	-0.020292709
162	0x3ce3300c	0.027732871
163	0xbb0268ac	-0.0019898815
164	0xbcfff3e1	-0.03124422
165	0xbcbbc364	-0.022920318
166	0xbd2a5f5a	-0.04159484
167	0xbd126476	-0.03574034
168	0xbc8a60ca	-0.016891856
169	0x3c6025d1	0.013680891
170	0xbcd425ef	-0.025896994
171	0xbc763f86	-0.015029794
172	0x39518d45	0.0001998442
173	0x3ca6a70e	0.02034333
174	0x3c5d1031	0.01349263
175	0x3c64ef68	0.0139730945
176	0x3c951d9f	0.018202601
177	0x3c6c0495	0.014405389
178	0x3ae4526a	0.0017419581
179	0x3d1a8993	0.037728857
180	0xbbf51c58	-0.0074801855
181	0xbc099feb	-0.008399944
182	0x3d027ba3	0.03185619
183	0xbd50ccff	-0.05097675
184	0xbb84dedf	-0.0040548886
185	0x3cf25164	0.029579826
186	0x3c7f1728	0.015569486
187	0x3c880a8b	0.01660659
188	0xbce2c522	-0.02768189
189	0xbca0b601	-0.019618036
190	0xbd513664	-0.05107726
191	0xbb8e36ba	-0.00434002
192	0x3d45e98e	0.04831844
193	0x3d918114	0.07104698
194	0xbc1326ae	-0.00898139
195	0xbd53242d	-0.05154817
196	0x3ddf07fc	0.10890195
197	0xbcdd82d3	-0.02703992
198	0x3b4fd4b7	0.0031712481
199	0xbdeee2cb	-0.11664351
200	0x3d39eb58	0.045390457
201	0xbc4204aa	-0.011841932
202	0xbc7e1521	-0.015507967
203	0x3db9c601	0.090709694
204	0x3dadbe82	0.08483602
205	0xbbd124c8	-0.0063825585
206	0x3d1ed0c8	0.038773328
207	0xbd22c8f9	-0.039742444
208	0xbdc8f4ba	-0.09812303
209	0xbc4ff73b	-0.012693222
210	0x3d5c4ae9	0.053782377
211	0x3c8edda4	0.01743967
212	0xbb0a5713	-0.002110903
213	0xbcfa0cb8	-0.030523643
214	0xbe0ef3d0	-0.13960195
215	0x3c9cbbeb	0.019132575
216	0xbce68061	-0.028137388
217	0x3d13b357	0.036059704
218	0x3a8b8106	0.001064331
219	0x3d7ad9b1	0.061242763
220	0xbd0cf21d	-0.034410585
221	0xbdfd3408	-0.1236344
222	0x3c240fe0	0.0100135505
223	0x3c51ef12	0.012813346
224	0x3e2408fc	0.16019052
225	0xbca9c84d	-0.020725394
226	0xbd812a27	-0.06306868
227	0x3d9fdfc2	0.0780635
228	0x3b930481	0.004486621
229	0x3c3d30be	0.011547266
230	0xbcca2e80	-0.024680376
231	0xbe0c461a	-0.13698617
232	0x3dae5589	0.08512408
233	0xbda8d64b	-0.08243998
234	0x3dc0e0c7	0.09417873
235	0x3d0218f5	0.031762082
236	0x3c6a39e0	0.014296025
237	0xbb52cd01	-0.003216565
238	0xbe4834d6	-0.19551405
239	0x3ddeaac9	0.108724184
240	0xbe18d36c	-0.14924401
241	0x3e35087a	0.17679015
242	0xbcefa1f8	-0.029252037
243	0xbca39924	-0.019970484
244	0x3c15287c	0.0091038905
245	0xbc2a4899	-0.010393285
246	0xbca19548	-0.019724503
247	0x3dc3f4e6	0.09568195
248	0xbd288ed2	-0.04115183
249	0xbcb3d263	-0.021950906
250	0x3db444a5	0.088021554
251	0x3d218b4c	0.039439484
252	0x3b407620	0.0029367283
253	0xbd03705c	-0.032089576
254	0x3c8637b5	0.016383985
255	0x3cb84c7b	0.022497406

std.constant9 f4 [16, 5, 5, 1]
0	0x3e2e0604	0.16994482
1	0x3d97a4e9	0.07404501
2	0x3e410972	0.1885126
3	0x3b35e95b	0.00277575
4	0xbc457cf0	-0.012053713
5	0x3d9d0f1b	0.07668897
6	0x3a249b75	0.00062792684
7	0x3d335005	0.043777484
8	0xbe33a300	-0.17542648
9	0xbdc36c68	-0.09542161
10	0x3e53b7c2	0.20675567
11	0xbe15df6f	-0.14636014
12	0xbe35845f	-0.17726277
13	0xbd0d5def	-0.03451341
14	0xbdbb45f8	-0.09144205
15	0xba4d1cf0	-0.00078244414
16	0xbe3c9762	-0.18417123
17	0x3e563ca6	0.20921573
18	0x3e58562a	0.21126619
19	0x3e0aed59	0.13567103
20	0xba003e1b	-0.0004892067
21	0x3dcad5be	0.09904049
22	0xbe1763bc	-0.1478414
23	0x3ccdbee1	0.025115432
24	0xbe046c90	-0.12932038
25	0xbd8ae769	-0.06782419
26	0x3e3b5c5f	0.18296956
27	0x3d11cd80	0.03559637
28	0xbd072e79	-0.033003304
29	0xbe6c15e2	-0.23055223
30	0xbd8b365c	-0.067974776
31	0x3e28f83c	0.16500944
32	0xbde4ec47	-0.11177879
33	0x3c24e863	0.010065171
34	0x3e2069a5	0.156653
35	0x3e06e8dd	0.13174768
36	0xbd9b78fd	-0.07591436
37	0x3d809ac9	0.06279523
38	0x3cf4a542	0.029863957
39	0xbe3c27dc	-0.1837458
40	0xbc429ef4	-0.011878718
41	0xbc4c652c	-0.012475293
42	0x3d3d122a	0.0461599
43	0x3c3b22e1	0.01142189
44	0x3e649b4c	0.22324866
45	0x3d8952f8	0.06705278
46	0x3e4bfe4c	0.19921225
47	0xbe73a5bc	-0.23793691
48	0xbc80c3b8	-0.015718326
49	0xbe730f6f	-0.23736356
50	0xbe170854	-0.1474927
51	0x3d1fa61b	0.03897677
52	0xbd5b771b	-0.053580385
53	0xbdf8bf58	-0.12145871
54	0xbc3248b0	-0.010881588
55	0xbe27a0b6	-0.163699
56	0xbd587ab9	-0.052851412
57	0xbda30717	-0.07960337
58	0xbd63d027	-0.05561843
59	0xbe0e9626	-0.13924465
60	0xbcc019e8	-0.023449853
61	0xbe0e2385	-0.13880737
62	0xbe612d2a	-0.21989885
63	0xbc60e8c7	-0.013727373
64	0x3b82b1d4	0.003988484
65	0x3e0d13ee	0.13777134
66	0x3e1cc5fc	0.153099
67	0x3ddbba96	0.10728948
68	0x3dea7da6	0.11449747
69	0xbd8a44e2	-0.067514196
70	0xbd070398	-0.03296241
71	0xbbc5eaa8	-0.006039936
72	0x3e0a0caf	0.13481401
73	0xbd506a25	-0.050882477
74	0x3e17edf1	0.14836861
75	0xbe460cff	-0.19340895
76	0xbd9aa757	-0.07551449
77	0xbe3594bd	-0.1773252
78	0xbdc1ea6e	-0.09468542
79	0xbd0adbf0	-0.033901155
80	0xbdf79127	-0.120882325
81	0x3defc4f4	0.11707488
82	0x3e16a577	0.14711557
83	0xbd9b7b99	-0.07591934
84	0xbd70832a	-0.058718838
85	0x3e026c5a	0.12736645
86	0x3d934bc0	0.071921825
87	0x3e20bf79	0.15698041
88	0x3e2eed57	0.17082725
89	0x3ceb6e00	0.028738976
90	0x3d6ccdfa	0.057813622
91	0xbdd02da6	-0.10164957
92	0x3d677cd4	0.05651553
93	0x3d2feae2	0.04294861
94	0x3e189a0c	0.14902514
95	0xbdc87507	-0.09787946
96	0x3e040481	0.12892343
97	0xbe6d23cd	-0.23158188
98	0x3e3fe74b	0.18740575
99	0xbe40dc92	-0.18834141
100	0xbc937795	-0.018001357
101	0x3c87bf1a	0.016570617
102	0xbc1362de	-0.00899574
103	0x3e718f93	0.23589925
104	0x3d61ef06	0.05515959
105	0xbd5c57fe	-0.053794853
106	0xbe0fe1f0	-0.14051032
107	0xbe49d66e	-0.19710705
108	0xbe320c9e	-0.17387626
109	0x3e193151	0.14960219
110	0xbdf327c2	-0.118728176
111	0x3ce2f5d5	0.027705112
112	0xbe16b86f	-0.14718793
113	0xbe1a5670	-0.15072036
114	0xbe22fa12	-0.15915707
115	0x3de05be4	0.10955027
116	0xbd69cbe8	-0.057079226
117	0xbe33a58a	-0.17543617
118	0x3c6d0219	0.014465832
119	0x3d6e365c	0.05815731
120	0x3e51da72	0.20493487
121	0x3d144de3	0.03620709
122	0x3e120ab8	0.14261901
123	0xbe0782bc	-0.13233465
124	0x3e6a3d87	0.22875033
125	0x3cd774c9	0.026300805
126	0x3e7c43b7	0.24635206
127	0x3dc27426	0.0949481
128	0xbe2712a9	-0.16315712
129	0x3df48ce9	0.11940939
130	0xbdca6b2d	-0.098837234
131	0x3cbdb2b6	0.023156505
132	0xbe3a7aa1	-0.18210842
133	0x3e596f45	0.21233852
134	0xbe0266a0	-0.12734461
135	0xbd995280	-0.07486439
136	0xbea4b178	-0.32166648
137	0x3e967fd6	0.29394406
138	0xbe21533c	-0.15754408
139	0xbe1a92ac	-0.15095013
140	0xbdc38b74	-0.09548083
141	0xbde329fc	-0.11091992
142	0xbe05f001	-0.13079835
143	0xbe65b954	-0.22433978
144	0xbd9af230	-0.07565725
145	0x3e0e4341	0.13892843
146	0xbe7d0cde	-0.2471194
147	0xbd906720	-0.070509195
148	0x3d58fab8	0.05297348
149	0x3e86bf28	0.26317716
150	0x3e021971	0.12705018
151	0x3bb4be98	0.0055158846
152	0xbbe4d884	-0.0069838185
153	0x3e5faf1f	0.21844147
154	0x3e18b565	0.14912947
155	0x3db6e44a	0.089302614
156	0x3d982b5f	0.074301474
157	0xbd934351	-0.07190574
158	0xbe174603	-0.14772801
159	0x3de62158	0.112368286
160	0xbe2eabc9	-0.17057718
161	0x3d6c2b19	0.05765829
162	0xbdfa5b48	-0.12224442
163	0x3d54ec96	0.05198344
164	0x3d7cabbc	0.061687216
165	0x3cf401a1	0.029785933
166	0x3e9edaba	0.3102625
167	0xbdb1a08b	-0.08673199
168	0x3c9cbcaa	0.01913293
169	0x3d71592b	0.058922928
170	0xbded0f90	-0.11575234
171	0xbe929345	-0.28627983
172	0xbe8ef206	-0.27919024
173	0x3e375fe4	0.17907673
174	0xbe02272f	-0.1271026
175	0xbdb75fa2	-0.089537874
176	0xbe610d83	-0.2197781
177	0xbe49f9a3	-0.19724135
178	0x3e2f21fc	0.17102808
179	0x3e91f2fe	0.285057
180	0xbdb09647	-0.08622413
181	0x3e284460	0.16432333
182	0xbe143cff	-0.14476393
183	0x3dd369a6	0.10322885
184	0xbe51cf81	-0.20489313
185	0x3dba62dd	0.09100888
186	0x3d1174db	0.035511833
187	0x3dea4dce	0.11440621
188	0xbddf637e	-0.109076485
189	0xbe015ed3	-0.12633829
190	0xbe2ee458	-0.17079294
191	0x3e875e65	0.26439205
192	0x3d33212b	0.043732803
193	0x3d5e78fc	0.0543146
194	0x3d0a2853	0.033729862
195	0x3d45a794	0.048255518
196	0xbcd6a23c	-0.026200406
197	0xbe30334d	-0.1720707
198	0xbe356e47	-0.17717849
199	0x3d7c5978	0.06160876
200	0xbdbbdb8c	-0.091727346
201	0xbda8194c	-0.0820795
202	0xbe16aa61	-0.14713432
203	0x3dc81200	0.09769058
204	0x3d2a1652	0.041525193
205	0x3c1b9b92	0.00949754
206	0x3dbf7475	0.09348384
207	0xbe2099da	-0.1568369
208	0xbe0892eb	-0.13337295
209	0xbd727efb	-0.05920313
210	0xbe3a3d7d	-0.18187518
211	0x3da4e44c	0.08051357
212	0xbd9f58ec	-0.077806324
213	0xbc844a0a	-0.016148586
214	0x3d0a1b70	0.033717573
215	0xbc9924c6	-0.018694293
216	0xbc99e02c	-0.018783651
217	0x3da9e3c3	0.08295395
218	0x3d7e9de2	0.062162288
219	0xbe5ed996	-0.2176269
220	0xbe588684	-0.21145064
221	0xbe6b3d73	-0.2297266
222	0x3e1072d0	0.14106297
223	0xbe85288d	-0.260075
224	0x3d88dbc2	0.066825405
225	0xbe124535	-0.14284213
226	0x3dd68547	0.104746394
227	0x3d644063	0.055725466
228	0x3e2ef89b	0.17087023
229	0xbdd5b664	-0.10435179
230	0x3de06db4	0.10958424
231	0x3db3ed8e	0.08785544
232	0xbe6fe7b9	-0.23428239
233	0x3d6a0584	0.057134166
234	0x3e11c22c	0.14234227
235	0xbe620e89	-0.22075857
236	0x3d08f343	0.033435117
237	0xbdd4650e	-0.10370837
238	0xbdab77a0	-0.08372426
239	0x3df4c0ff	0.119508736
240	0x3e17d77d	0.14828296
241	0xbdc4a5eb	-0.09601959
242	0xbe1e9fef	-0.15490697
243	0x3d3d506a	0.046219267
244	0xbe238088	-0.15967
245	0x3d91eb8a	0.07125004
246	0xbe6be716	-0.23037371
247	0x3e1432d4	0.14472514
248	0x3e10156d	0.14070673
249	0xbe30be7a	-0.17260161
250	0xbe495ead	-0.19665022
251	0xbdba1918	-0.090868175
252	0x3e036fd7	0.12835632
253	0xbe11ac35	-0.14225848
254	0xbc394686	-0.011308318
255	0x3e080262	0.13282159

std.constant10 f4 [32, 5, 5, 16]
0	0x3cffe0ef	0.031235186
1	0xbc84f199	-0.016228484
2	0x3c7843d8	0.015152894
3	0xbc8ddd9c	-0.017317586
4	0xbcae3c16	-0.021268886
5	0xbd938163	-0.07202413
6	0xbd19f799	-0.037589643
7	0xbd5bab9c	-0.053630456
8	0x3cbb7e60	0.022887409
9	0xbd753fab	-0.05987517
10	0x3d369242	0.044573076
11	0x3d02b4dc	0.031910762
12	0xbcdb1ec9	-0.026748078
13	0xbd15ca18	-0.036569685
14	0xbd9b90ac	-0.07595953
15	0x3bc07fef	0.005874626
16	0xbd1da514	-0.03848751
17	0x3d048876	0.0323567
18	0xbd311206	-0.04323008
19	0xbc84cf3d	-0.0162121
20	0xbd385445	-0.04500224
21	0x3d0afb22	0.033930905
22	0xbba5541c	-0.005045427
23	0xbc6c10c5	-0.014408295
24	0xbc66811a	-0.014068866
25	0xbca6aa46	-0.020344865
26	0x3c826410	0.015916854
27	0xbcdf998f	-0.027294902
28	0x3b8e48e7	0.0043421867
29	0xbd81dc35	-0.06340829
30	0xbd3fb13e	-0.04679989
31	0x3d7d370b	0.06182007
32	0xbc66cc3e	-0.014086781
33	0x3c69d361	0.014271588
34	0xbd42fc36	-0.04760381
35	0xbd841b04	-0.06450465
36	0x3d2b9735	0.04189225
37	0xbcd25a64	-0.025677867
38	0xbd29fc77	-0.041500535
39	0xbd865c85	-0.065606155
40	0x3cc83d1a	0.024443198
41	0x3c4f63e0	0.012658089
42	0x3d27b740	0.040946245
43	0x3c98fdb9	0.018675672
44	0xbd98fe6a	-0.07470401
45	0xbd8df550	-0.06931555
46	0x3c150a92	0.009096758
47	0x3b37460c	0.0027965335
48	0xbcfa09a6	-0.030522179
49	0x3b107e6c	0.002204801
50	0xbda1ac16	-0.07894151
51	0xbd620a44	-0.05518557
52	0x3c1b69f6	0.009485712
53	0xbd0d6e29	-0.034528885
54	0xbb8c2e43	-0.0042779758
55	0x3a2b230b	0.0006528354
56	0x3c967063	0.018364137
57	0xbac3209d	-0.0014887039
58	0xbcc077e0	-0.02349466
59	0xbd0a9fd1	-0.03384382
60	0xbd29dc86	-0.041470073
61	0xbcf64f7f	-0.030067204
62	0xbc2ecb93	-0.010668653
63	0x3d545133	0.05183525
64	0xbce8892d	-0.028385723
65	0xbc96e083	-0.018417602
66	0xbd8a8dd7	-0.06765335
67	0xbd2d23aa	-0.04227034
68	0xbd8ad426	-0.06778745
69	0xbba60828	-0.0050668903
70	0x3c7620f4	0.015022505
71	0x3be71813	0.0070524304
72	0x3ad0026e	0.0015869865
73	0x3cd75713	0.026286637
74	0x3b9326c0	0.0044907033
75	0x3c845d29	0.016157703
76	0xbcb5ca43	-0.022191172
77	0xbc7bf1a4	-0.015377436
78	0x3c3521f0	0.011055455
79	0x3c96242a	0.018327791
80	0x3d15f2c4	0.036608472
81	0xbb29aa0d	-0.0025888712
82	0x3cae298c	0.021260045
83	0xbd8c0a32	-0.06837882
84	0xbcf85940	-0.030315995
85	0xbca908e1	-0.020634117
86	0xbd16b063	-0.03678931
87	0x3ccc272a	0.024921019
88	0x3c7639c0	0.015028417
89	0x3cb3d8d1	0.021953972
90	0xbd0afcf8	-0.033932656
91	0xbc8bc39b	-0.017061045
92	0xbcf256b0	-0.029582351
93	0xbd3c51bd	-0.04597639
94	0x3c4096c8	0.011754699
95	0xbcb34eae	-0.021888103
96	0x3c423e41	0.011855663
97	0x3c9d471c	0.019198947
98	0xbd1cdcd4	-0.038296536
99	0xbd807fa4	-0.062743455
100	0xbcee331f	-0.02907711
101	0x3db239d1	0.08702434
102	0x3b30d00b	0.0026979472
103	0xbd4b400b	-0.049621623
104	0x3c6adb93	0.014334577
105	0xbd654d35	-0.055981833
106	0xbcfa28bd	-0.030537004
107	0x3c9186c3	0.017764455
108	0xbd1976fb	-0.037466984
109	0xbd8ca3a4	-0.068671495
110	0xbd662d9a	-0.056195833
111	0x3d94fec0	0.07275152
112	0xbd665fc4	-0.056243673
113	0x3c4860ef	0.012230142
114	0xbdbd76ce	-0.09251176
115	0xbd84b010	-0.06478894
116	0xbc4411fd	-0.011967179
117	0xbd695749	-0.056968007
118	0xbd6bacf7	-0.057538
119	0xbda2f51b	-0.079569064
120	0xbc9c9a3b	-0.019116512
121	0xbc9ac3fb	-0.018892279
122	0x3d35a14a	0.04434327
123	0xbd07ca15	-0.033151705
124	0xb9dad976	-0.0004174222
125	0xbb28c309	-0.0025751016
126	0x3a4479f9	0.0007494982
127	0xbc8a96b3	-0.016917562
128	0xbd3c5c02	-0.045986183
129	0x3c50cdfe	0.012744425
130	0xbd736e5d	-0.059431423
131	0xbc8c61f5	-0.017136553
132	0xba8bb03f	-0.0010657384
133	0xbaca8b01	-0.0015452803
134	0x3d33dd4c	0.043912217
135	0xbc9f8749	-0.019473689
136	0xbb925cda	-0.004466635
137	0xbd7aba0d	-0.061212588
138	0xbd229152	-0.03968937
139	0x3b4e3289	0.0031463227
140	0xbd97c3c1	-0.07410384
141	0xbccb4e2e	-0.024817552
142	0xbd945292	-0.072423115
143	0x3d52ffb0	0.051513374
144	0xbc60bd41	-0.013716997
145	0xbbe1a076	-0.0068855835
146	0xbd817842	-0.063217655
147	0x3d08020a	0.03320507
148	0xbd919d2e	-0.07110058
149	0x3b787dd6	0.00379168
150	0xbd049a35	-0.032373626
151	0xbd97f9d4	-0.07420698
152	0xbbb1381a	-0.005408299
153	0xbca0fc3c	-0.019651525
154	0x3d1bca7b	0.038034897
155	0x3cc1bb40	0.023648858
156	0xbc82ad5e	-0.015951809
157	0xbce94b77	-0.028478367
158	0xbcf64fcc	-0.030067347
159	0xbd199160	-0.037492156
160	0x3d02f772	0.031974263
161	0xbcaa9b0e	-0.020825889
162	0xbcc6ccd0	-0.024267584
163	0x3d00a5c1	0.031408075
164	0xbb20b390	-0.002452109
165	0xbb7bb628	-0.0038408134
166	0xbca60785	-0.020267257
167	0xbd4dca97	-0.050242033
168	0xbd1ea3c6	-0.038730405
169	0x3c2cc7aa	0.0105456505
170	0xbd181ddf	-0.037137862
171	0xbd6cdcaf	-0.057827648
172	0xbd699963	-0.057031047
173	0xbb24f490	-0.0025170185
174	0xbd53f4b1	-0.051747028
175	0x3d54774d	0.051871587
176	0x3ad96688	0.0016586343
177	0xbc2f6c19	-0.010706925
178	0xbd51a42d	-0.05118196
179	0xbc9e3dd7	-0.019316597
180	0xbda6a680	-0.08137226
181	0x3cbf265a	0.023333717
182	0xbb5d1679	-0.0033735319
183	0xbd1de412	-0.038547583
184	0xbc400543	-0.0117200045
185	0x3bf9ffb1	0.0076293577
186	0xbc25ad2d	-0.010112089
187	0xbc705b0d	-0.014670146
188	0x3bde3a6c	0.006781867
189	0x3caf7434	0.021417715
190	0xbd2f3d6c	-0.042783186
191	0xbd2c1ef3	-0.042021703
192	0xbd17d85a	-0.037071563
193	0xbc251838	-0.010076575
194	0xbc98b419	-0.018640565
195	0x3cbbb38c	0.022912763
196	0xbbdaffcb	-0.006683325
197	0xbd861354	-0.06546655
198	0xbd023254	-0.031786278
199	0xbbc691e1	-0.0060598706
200	0xbcf97476	-0.03045104
201	0xbd8c0a6a	-0.06837924
202	0x3d1a5da7	0.03768697
203	0x3c922288	0.017838731
204	0xbd41b55d	-0.047292102
205	0xbb6e5e76	-0.003637222
206	0xbbabe088	-0.005245272
207	0xbd160435	-0.036625106
208	0xbd731dc5	-0.059354562
209	0xba5ee44a	-0.00085026457
210	0xbd3e2287	-0.046419647
211	0xbd06416b	-0.03277723
212	0xbd9c50e6	-0.07632618
213	0xbbab1856	-0.005221407
214	0xbd882388	-0.06647402
215	0xbd9b1d39	-0.07573933
216	0x3cab685d	0.020923788
217	0xbd88966e	-0.06669317
218	0x3d4c1f4c	0.049834535
219	0xbcfb3cce	-0.030668642
220	0xbc25b8f1	-0.010114894
221	0xbb7e0a10	-0.0038763322
222	0xbd3ba62c	-0.04581277
223	0xbc956169	-0.018234925
224	0xbd0115c9	-0.031514917
225	0xbcad5dbf	-0.021162866
226	0xbd7ca3b4	-0.061679557
227	0x3cca8d81	0.024725677
228	0xbd9adfb6	-0.07562201
229	0x3cf2584a	0.029583115
230	0xbd0d3ddd	-0.034482826
231	0xbb919a24	-0.004443424
232	0x3c11de3c	0.008903082
233	0xbcafef51	-0.02147642
234	0x3be7d11a	0.0070744874
235	0xbd0f22b8	-0.03494522
236	0x3b247de6	0.0025099455
237	0xbc58097a	-0.013185853
238	0xbd74bf51	-0.059752766
239	0xbc158a63	-0.009127232
240	0xbc37e0c6	-0.011223024
241	0x3c452be5	0.012034391
242	0x3c9553e1	0.018228473
243	0xbd1f90ed	-0.03895657
244	0xbd67e50d	-0.056614924
245	0x3c812fe0	0.015769899
246	0x3c8618f4	0.01636932
247	0xbc8acd59	-0.01694362
248	0xbcee0947	-0.029057158
249	0xbbf4365f	-0.0074527706
250	0x3c5ea6ba	0.013589555
251	0x3d190d32	0.0373661
252	0x3ce97cbc	0.02850186
253	0x3bd8dcee	0.0066181337
254	0x39dc9313	0.0004207125
255	0xbd1f5f23	-0.03890909

std.constant11 f4 [64, 5, 5, 32]
0	0x3ca2c143	0.019867545
1	0xbd0ec68e	-0.034857325
2	0xbce04cc8	-0.027380362
3	0x3cdf5afd	0.027265066
4	0xbc2869a4	-0.010279093
5	0xbcd4175c	-0.025890045
6	0xbce06e19	-0.027396249
7	0xbc394e73	-0.011310208
8	0x3c8afa48	0.016965047
9	0x3c933281	0.017968418
10	0xbce096db	-0.027415683
11	0x3cc52add	0.02406829
12	0xbc665caf	-0.014060183
13	0xbc683097	-0.014171741
14	0xbcc70165	-0.024292657
15	0x3c71a1bd	0.014748034
16	0xbc02f09f	-0.007991939
17	0xbcdb4d27	-0.026770188
18	0x3c2deeef	0.010616048
19	0xbbfe6d21	-0.007764474
20	0x3b0c9ab5	0.0021454517
21	0xbc8b1aea	-0.016980607
22	0x3ccad3cf	0.024759201
23	0x3cb2ce02	0.021826748
24	0x3bce08ca	0.006287669
25	0x3bd24ea6	0.006418067
26	0x3ca1730a	0.019708175
27	0xbbe23b9d	-0.006904079
28	0x3cea6e39	0.028617011
29	0xbd22dc74	-0.03976102
30	0xbd13b730	-0.036063373
31	0xbcafefc2	-0.02147663
32	0x3c6f5627	0.014607943
33	0x3c3734ce	0.011182023
34	0xbcb37530	-0.021906465
35	0x3ce63e44	0.028105862
36	0xbd01cc8c	-0.03168921
37	0x3c17049e	0.009217409
38	0xbd299300	-0.041399956
39	0xbc15a3ca	-0.009133289
40	0x3af8c50e	0.0018979625
41	0x3b98f7d0	0.0046682134
42	0x3c2fce0b	0.010730277
43	0xbcfb5961	-0.030682268
44	0xbca81184	-0.020516165
45	0xbceaba03	-0.02865315
46	0xbc8a55e4	-0.016886659
47	0xbae90194	-0.001777696
48	0xbbb81711	-0.005617984
49	0x3cde25a3	0.027117556
50	0x3b9d53dd	0.004801257
51	0x3ce6ff80	0.028198004
52	0xbd0bc13e	-0.034119837
53	0xbcb95c8e	-0.022627141
54	0x3bfd3061	0.0077267145
55	0x3a16f24f	0.00057581527
56	0x3c94a28a	0.01814391
57	0x3b461644	0.0030225674
58	0x3cb60580	0.02221942
59	0xbb1619a5	-0.002290347
60	0xbb6b7965	-0.003593051
61	0xbcee804d	-0.029113913
62	0xbcd29ed3	-0.025710499
63	0x3bc48259	0.005996984
64	0xbc023ea3	-0.007949504
65	0x3ceebe08	0.029143348
66	0xbc9181ef	-0.017762152
67	0xbad28ef1	-0.0016064328
68	0xbd2dec7c	-0.042461857
69	0x3cf7d5e7	0.030253364
70	0xbd1f6fc7	-0.03892496
71	0xbc6f93f7	-0.01462268
72	0xbcdad7c1	-0.026714208
73	0xbc5efe78	-0.013610475
74	0xbc3f5970	-0.011679038
75	0xbc493db3	-0.012282777
76	0x3d08ccc4	0.033398405
77	0x3cf4a663	0.029864496
78	0xbc21806e	-0.00985728
79	0xbcb0f687	-0.021601928
80	0xbc72f265	-0.014828299
81	0xbc5b9a40	-0.013403475
82	0x3c21bc1e	0.009871511
83	0x3d348054	0.044067696
84	0x3d0743c1	0.0330236
85	0x3c63b6ba	0.013898546
86	0x3c645b34	0.01393776
87	0xbcdedec0	-0.027205825
88	0xbca786ab	-0.020449957
89	0x3cd891d0	0.026436716
90	0xbbd36924	-0.0064517427
91	0x3cc284ab	0.023744902
92	0xbbbcff4d	-0.005767739
93	0xbcbb5e98	-0.022872254
94	0x3b6af3db	0.0035850916
95	0xbb8b7b0a	-0.0042566108
96	0x3b042c4d	0.0020168007
97	0x3c688450	0.014191702
98	0xbb546e30	-0.003241431
99	0xbc94b237	-0.018151386
100	0x3aaddbd9	0.0013264372
101	0x3c0c3df2	0.008559691
102	0xbc3908ff	-0.011293649
103	0x3b22226c	0.0024739755
104	0xbd0c1bbc	-0.034206137
105	0xbb797576	-0.0038064397
106	0x3c006574	0.007836688
107	0xba032138	-0.00050022034
108	0xbb86c702	-0.004113079
109	0xba8c0c31	-0.0010684786
110	0x3c2f156f	0.0106862625
111	0x3c75ccee	0.015002472
112	0xbc90bea8	-0.017669037
113	0x3cc60b2f	0.024175255
114	0xbb1893b2	-0.0023281393
115	0xbce7e5ca	-0.028307814
116	0x3cac4b12	0.02103189
117	0xbbeffd3a	-0.007323888
118	0x3c2856ae	0.010274572
119	0x3cc30fec	0.023811303
120	0xbc7b082a	-0.015321771
121	0x3c13dcb8	0.009024791
122	0x3c20bc94	0.0098105855
123	0x3b989c1e	0.0046572825
124	0x3c910d16	0.017706435
125	0xbc6d2ffc	-0.014476772
126	0x3c443086	0.0119744595
127	0xbce6d6ad	-0.028178537
128	0x3d144f8f	0.036208685
129	0xbc65621e	-0.014000444
130	0x3c26bca6	0.010176813
131	0xbb4baf45	-0.003107981
132	0x3b6269f1	0.003454801
133	0xbb7068b7	-0.0036683509
134	0xbd01b2e5	-0.031664748
135	0xbcd5a6ab	-0.02608045
136	0xbd1c1b96	-0.038112246
137	0xbc2cc763	-0.010545584
138	0x3c785813	0.015157717
139	0x3cf67690	0.030085832
140	0x3cdb48a6	0.02676804
141	0x3caf0aeb	0.02136751
142	0x3c1e20e5	0.009651397
143	0xbd002b3f	-0.031291243
144	0x3bf97295	0.007612536
145	0x3c82889c	0.015934281
146	0xbd1cbd54	-0.038266495
147	0x3c19819a	0.009369278
148	0x3c7204ce	0.014771653
149	0xbcc8c825	-0.024509499
150	0xbcfa0fdd	-0.030525142
151	0xbce78858	-0.028263256
152	0x3c842954	0.016132988
153	0xbc322aa5	-0.010874425
154	0x3c519639	0.0127921635
155	0xbc32fb55	-0.01092418
156	0xbc051123	-0.0081217615
157	0x3b00ccfc	0.001965343
158	0xbc84c90f	-0.016209153
159	0xbce0a7b4	-0.027423717
160	0x3c49fc1b	0.012328173
161	0x3ab8a31f	0.00140867
162	0x3bbcdd77	0.0057637054
163	0xbcee5299	-0.02909212
164	0xbd1c8c47	-0.038219716
165	0x3c889d13	0.016676461
166	0xbd2a65ab	-0.041600864
167	0xbca7d46e	-0.020487037
168	0xbcd96199	-0.026535796
169	0xbd05173d	-0.032492865
170	0xbc6eee14	-0.014583129
171	0x3d122aaa	0.03568522
172	0x3abc42cd	0.001436317
173	0x3d1483be	0.03625845
174	0xbc6987ac	-0.014253538
175	0x3cb53962	0.022122089
176	0xbcc6d6a3	-0.024272269
177	0x3cab2def	0.020895926
178	0xbd0545f0	-0.0325374
179	0x3cbee638	0.023303136
180	0xbc658ae4	-0.014010165
181	0xbcaa60a7	-0.02079804
182	0x3b3092da	0.0026943
183	0x3bafe5c0	0.0053679645
184	0xbcfae4b3	-0.03062663
185	0xbac3c2cb	-0.0014935372
186	0xbcd10911	-0.025517019
187	0xbc9a28ce	-0.018818285
188	0xbc8bb4d8	-0.017054006
189	0xbcc52f48	-0.024070397
190	0xbcdbc0e2	-0.026825372
191	0xbba81224	-0.0051291157
192	0x3cd29b86	0.025708925
193	0x3c88ff8d	0.016723419
194	0xbb0fa770	-0.002191987
195	0x3c6ccbc8	0.014452882
196	0xbc96c11d	-0.01840263
197	0x3cb137c1	0.02163303
198	0xbcfc5167	-0.030800534
199	0xbcc6b8e9	-0.024258094
200	0xbbe15e43	-0.006877692
201	0xbd11e67d	-0.0356202
202	0xbd280fe6	-0.041030787
203	0x3c847513	0.016169107
204	0xbce5fe59	-0.028075384
205	0x3d2de899	0.04245815
206	0xbc070920	-0.008241922
207	0xbc1d4c8e	-0.009600772
208	0x3bd2c21e	0.006431832
209	0xbbdab50e	-0.0066744154
210	0xbd0d13fc	-0.034442887
211	0xbc908af9	-0.017644392
212	0xbc6fff02	-0.014648201
213	0xbd1ff854	-0.039055184
214	0xbc83dbe8	-0.01609607
215	0x3c96a30d	0.018388296
216	0x3c999e8d	0.01875236
217	0x3c20c4fc	0.00981259
218	0x3cca9984	0.024731405
219	0x3cc91cc8	0.024549857
220	0xbc2109a7	-0.009828961
221	0x3c141b8a	0.009039769
222	0xbc91ed31	-0.017813297
223	0xbb70c16e	-0.0036736387
224	0xbb6bab5a	-0.0035960288
225	0xbca44032	-0.020050142
226	0xbd159567	-0.036519434
227	0xbd01d25a	-0.031694748
228	0x3cc8a6e0	0.024493635
229	0x3c0d98e2	0.008642407
230	0xbc00ee1f	-0.0078692725
231	0xbcb3b788	-0.0219381
232	0x3b85c24d	0.0040820003
233	0xbd125b4b	-0.035731595
234	0x3badcc0b	0.005303865
235	0x3d096da2	0.03355182
236	0xbc4e6581	-0.012597443
237	0xbcc2dd4f	-0.023787169
238	0xbcf6b76b	-0.030116757
239	0xb9a9216f	-0.00032259102
240	0xbc52f75c	-0.012876358
241	0x3c94d840	0.018169522
242	0x3c3ce4ec	0.011529189
243	0x3c394bc4	0.011309568
244	0xbca1d250	-0.019753605
245	0x3caec81a	0.02133565
246	0x3c2e7dc9	0.010650107
247	0xbcaea9f5	-0.021321276
248	0xbd13030d	-0.03589158
249	0x3baecaa6	0.005334216
250	0xbc9d52c1	-0.0192045
251	0xbd132811	-0.035926882
252	0xbb6077a9	-0.003425101
253	0xbc752831	-0.014963196
254	0x3d051617	0.03249177
255	0x3c0df94f	0.008665397
