polar-window10-lag0-cnn-tf.tflite (tflite, 286740 bytes, 8 tensors)

std.constant1 f4 [16]
000000 c6 04 53 be 7f c3 53 3c fd 26 31 be db 85 92 3c
       -0.2060729 0.012925028 -0.17300029 0.017886093
000010 ff e2 10 bd de d7 2e 3e f4 3b 34 3e cd 0d d5 3d
       -0.03537273 0.17074534 0.17600995 0.10403023
000020 5e c8 26 3d d9 16 ce 3d 61 98 2e 3e f7 48 3b 3e
       0.04071843 0.100629516 0.17050315 0.18289553
000030 91 e6 3d 3d e1 ba 8b bd 57 9f d7 bd d4 3e ed bd
       0.046362463 -0.06822754 -0.105284385 -0.11584249

std.constant2 f4 [32]
000000 32 4f b7 bb 8e 14 2c 3c e2 1a 4e bd ce 5a ab bd
       -0.0055941576 0.0105029475 -0.050318606 -0.08366929
000010 cf a5 4a bc 1b 36 ab bc af ca ef 3c 55 84 9a 3c
       -0.012368633 -0.020899823 0.029271452 0.018861929
000020 eb f0 ad bc 76 1e 5b b8 ac 6b bb 3d 30 bb 55 bd
       -0.021233043 -5.2242038e-05 0.09151396 -0.05218047
000030 17 03 ac 3d 32 c7 c9 3c af 4e 61 bd f1 d8 c8 bd
       0.08399027 0.024631117 -0.05500668 -0.09807003
000040 fc 88 0a bc ee 0e 5c bd 51 e3 d2 bb a8 0b 5f bb
       -0.008455511 -0.053725176 -0.0064357896 -0.0034034047
000050 79 7c d2 bb 79 c2 6b 3b 34 90 49 3d e6 28 0f 3d
       -0.0064235297 0.003597407 0.04920979 0.034951113
000060 28 a6 b3 3c 62 ff 82 bd 92 02 8e 3d a3 bb 01 bd
       0.021929815 -0.06396367 0.06934084 -0.031673085
000070 f7 98 48 3d 35 a9 ca 3c 4b 09 3f 3d 65 e6 47 3d
       0.048974004 0.024738887 0.04663972 0.048803706

std.constant3 f4 [64]
000000 99 38 23 3d d1 63 fe 3c 99 0c 98 3d 4f 7c 82 3c
       0.039848898 0.031053456 0.07424278 0.015928416
000010 e0 6d c8 3c 90 c1 ef bb b7 34 44 bd e4 14 4b 3b
       0.024466455 -0.0073167756 -0.047901835 0.0030987794
000020 72 b6 0b bd e6 22 2d 3c 2a 66 25 3d b9 42 08 3d
       -0.03410954 0.0105674025 0.040380634 0.033266757
000030 17 93 6e bb 36 2d 22 3c 1b af 20 bd c5 27 45 3d
       -0.003640359 0.009898474 -0.039229494 0.04813363
000040 96 f0 0c 3d 2b 43 7d 3c 50 32 b8 3b 52 8a fe bc
       0.034409128 0.015457909 0.005621232 -0.031071816
000050 7b 97 4c 3c 55 f6 96 3d 13 52 19 bd 04 bc f6 3c
       0.012487288 0.07371203 -0.037431788 0.03011895
000060 74 c4 e9 3c cb 30 20 bc ed 8b 56 3d 6b 3a 53 3d
       0.028536059 -0.009777258 0.052379537 0.051569384
000070 6f 04 45 3b 68 11 c0 3d e2 fb 49 3d a1 ab 67 3d
       0.0030062457 0.0937832 0.04931248 0.056560162
000080 4a 56 96 bd 40 7f 1b bc a4 48 89 bb c7 c8 d0 bc
       -0.07340677 -0.009490788 -0.0041895676 -0.025486363
000090 d2 0e 8c bb 02 57 f0 bc c2 74 32 bc c5 3a 18 bd
       -0.0042742277 -0.029338364 -0.010892095 -0.037165422
0000a0 ef e8 97 3c 86 0a b1 bb cb 96 d6 3c 1b 52 db bb
       0.018543689 -0.005402866 0.02619495 -0.0066931373
0000b0 fd a8 2e bd 94 71 57 bd 10 2c 6f 3d 3b 85 33 bd
       -0.04264163 -0.05259855 0.05839163 -0.04382823
0000c0 1a 46 33 3b 39 b4 42 bd 0a 78 f3 3c 5b 94 c5 3b
       0.0027355016 -0.047535155 0.029720325 0.0060296482
0000d0 2f f9 29 bc 6f ff 3f 3b f3 0e a4 bc 42 4d ed bc
       -0.010374351 0.0029296537 -0.02002666 -0.028967503
0000e0 68 64 92 bc ec e6 7a 3d d6 d8 b6 bd cd 37 b2 bc
       -0.017870143 0.06125538 -0.08928077 -0.021755124
0000f0 65 02 09 bd f0 8f ae 3d d0 37 16 3c 5e 60 84 bd
       -0.03344955 0.08523548 0.00916858 -0.06463693

std.constant4 f4 [2]
000000 62 0a 9a 3d 7f 85 6e bd
       0.075215116 -0.05823278

std.constant8 f4 [2, 3136]
000000 6c 20 56 bc cc af 73 bc 5c 86 3e 3d 55 33 46 bc
       -0.013069253 -0.014873456 0.046514854 -0.012097199
000010 2c 09 6c 3b bb f5 c7 3c 38 4a 8e ba aa 0c 33 3b
       0.003601621 0.024409166 -0.0010855859 0.002732078
000020 fb 00 90 bd 56 02 b5 bc 63 c1 c5 3c 3d c3 b6 3d
       -0.07031437 -0.02209584 0.024140066 0.089239575
000030 bc 99 32 3d 84 fa 12 3d ec c6 49 bc 84 6f 62 3d
       0.043603644 0.03588344 -0.012315493 0.05528213
000040 43 e1 51 3c 5f 6c 1e 3c 80 bb 3a 3c 57 22 91 bc
       0.012810054 0.009669392 0.011397243 -0.01771657
000050 db ce f1 bc 2b 8c 28 bc 66 23 ce bb 5a dc 44 3b
       -0.029517582 -0.010287325 -0.006290841 0.0030038566
000060 61 54 b1 3c cc 98 3a 3c b8 b7 9c bb 4f cb e3 3c
       0.02164668 0.011388969 -0.004782643 0.027806906
000070 37 b8 b6 3a 7f 24 3e bb 78 6c 79 3c 2b 2f 41 b9
       0.0013940398 -0.0029013453 0.015223615 -0.00018423486
000080 a6 cf 8f bc 12 61 4e 3b a1 58 17 3c 83 d5 cf bb
       -0.01755507 0.0031490964 0.009237439 -0.0063425913
000090 7b ae 13 bd d3 98 9b b8 0b 6b 76 3c 52 96 e6 3c
       -0.03605507 -7.419442e-05 0.0150401695 0.02814785
0000a0 9d 67 1b bd 3a 08 f3 3c b8 0a dc 3a d4 3f f0 3a
       -0.03794061 0.029667009 0.0016787862 0.0018329569
0000b0 72 57 47 3c 0c 87 6b 3d 48 8e 50 3d 81 82 f1 bb
       0.012166845 0.057501838 0.05091694 -0.0073702936
0000c0 e0 a2 69 bc 6d 44 13 3c bb b0 03 bc 21 b8 57 bd
       -0.014260024 0.008988482 -0.008037741 -0.052665833
0000d0 7a df b7 bd a8 59 65 be f9 2b 4c bd 76 1d df 3d
       -0.08978172 -0.22397482 -0.049846623 0.10894291
0000e0 bf d9 e1 3c 31 36 2d be e0 f0 5f be cc ab 65 be
       0.02756965 -0.16915204 -0.2186923 -0.22428817
0000f0 86 23 e0 bd 0a dd b0 bc 50 51 13 bc 0f c1 a2 3c
       -0.109442756 -0.021589775 -0.008991554 0.019867448
000100 8f de cf 3c 80 72 02 3c c6 ad 63 bd f0 19 28 be
       0.025374679 0.007961869 -0.055585645 -0.16416144
000110 aa 79 57 be 4e c7 44 be 03 46 8c 3c 0f b9 4d bd
       -0.21042505 -0.19216654 0.017123228 -0.050225314
000120 28 11 8d 3c b1 fe 94 ba a0 c7 b1 bd 63 4a 46 be
       0.017220095 -0.0011367408 -0.086806536 -0.19364314
000130 d0 b1 6b be 8b 91 03 be 0e 72 f4 bd bf 79 a7 bd
       -0.23017049 -0.12848489 -0.11935817 -0.08177518
000140 62 f6 35 3c 3c d3 5d 3d f7 d6 7d bd f9 82 c2 3c
       0.0111061055 0.054156527 -0.061972585 0.023744093
000150 f8 2b 97 be 1e d8 44 be 29 07 4c bc a4 d9 f8 3c
       -0.29525733 -0.19223067 -0.012452879 0.030377217
000160 84 db 31 3d f5 c6 17 3d c7 f6 97 3b 97 97 4a 3d
       0.043422237 0.037054975 0.0046375724 0.049460974
000170 b8 e0 7a 3c 28 84 2b 3d bf 2c b1 bc 2d 3f ae bd
       0.015312366 0.04187408 -0.021627782 -0.085081436
000180 0f 50 c8 3d 70 e3 e9 3d 7f 2f b0 3d 90 14 c0 bb
       0.09780895 0.114203334 0.08602809 -0.0058618262
000190 7e 1a 2c 3c 22 c3 29 bd f5 f0 d9 3d e8 53 0b 3e
       0.010504363 -0.04144586 0.10641662 0.13606226
0001a0 4d 5f b2 3d 72 d5 c4 bd 17 23 d2 bd 51 d2 d4 3d
       0.087095834 -0.09611024 -0.10260599 0.10391677
0001b0 c9 0c 15 3d 81 d8 78 bc 56 0f 88 3c a3 c5 88 3d
       0.036389146 -0.015188337 0.016608875 0.06678321
0001c0 54 c4 dc bd 5d 67 b6 bd 6f 0f e5 bd d2 b6 9a bd
       -0.10779634 -0.08906434 -0.11184584 -0.075544015
0001d0 f7 48 16 bd 33 c4 83 bd e4 4d 3e 3c 80 5f fc bd
       -0.03669068 -0.064339064 0.01161525 -0.12322903
0001e0 ae 4e 56 bd 31 11 15 be c8 28 7d be 72 1b 72 be
       -0.05232113 -0.14557339 -0.24722588 -0.23643282
0001f0 43 f2 01 be 48 bd 62 bc fe 0b 0b bb 1f 22 18 bc
       -0.12690072 -0.0138390735 -0.0021216865 -0.009285479
000200 0f 86 9c 3b d7 c8 93 3c 39 0e 02 3d a3 ee 40 3d
       0.004776723 0.018040104 0.031751845 0.04710258
000210 26 4f 8e 3d c2 88 8b 3d 51 aa 77 3d da e8 8a 3d
       0.0694869 0.06813194 0.06046516 0.06782694
000220 54 dc 9c 3d 35 51 33 3c 72 49 13 3d af 4b 46 bd
       0.07659212 0.010944654 0.035958715 -0.04841202
000230 7a da 12 3c 73 17 55 3c f1 39 69 3d 9e ac 8c 3d
       0.008963222 0.013006079 0.056940023 0.068688616
000240 4a c4 9c 3d 0b 17 b3 3d 6b 47 aa 3c d5 96 24 bd
       0.07654627 0.087446295 0.020786008 -0.040182907
000250 37 07 75 bd d8 9a 28 bc 81 d7 35 3c bd b1 47 3a
       -0.059821334 -0.010290824 0.011098743 0.00076177326
000260 6b 37 ef 3c 22 f4 a2 3d 84 14 d0 3c c2 25 c2 bc
       0.02920123 0.07956721 0.025400408 -0.023699645
000270 3a 56 b0 bb 28 b8 70 3c bc f1 48 3c 2e 84 8b 3c
       -0.0053813728 0.014692344 0.012264665 0.017030802
000280 03 40 da 3c a3 39 bb 3d 65 dd ae 3c c8 7a c8 3c
       0.026641851 0.09141853 0.021345804 0.02447261
000290 7f 8b ce 3c 49 8e 93 3c bb 12 fb 3c 14 aa bd 3c
       0.025213001 0.018012183 0.03064858 0.023152389
0002a0 67 5d 6f 3d 13 45 a2 3c b2 06 35 3c ec 32 20 bb
       0.058438685 0.019808328 0.01104896 -0.0024444414
0002b0 d7 5f a5 3c 19 51 1f bd f7 da 44 bd 71 4b 6a bb
       0.020187302 -0.0388957 -0.048060384 -0.0035750533
0002c0 c0 33 00 bb 72 20 ef bc 30 84 08 bd 5f 2c 4c bd
       -0.0019562095 -0.029190276 -0.03332919 -0.049847003
0002d0 fa 12 45 bd e5 c3 bc 3c a4 cf 16 3b 8e a5 02 bc
       -0.0481138 0.023042629 0.0023011947 -0.007974042
0002e0 c5 ea 83 bc 38 22 d5 bc d6 fa 2b bd de 4b 8e bd
       -0.016103158 -0.026017293 -0.041987263 -0.06948064
0002f0 3c ea 88 bb 5f c6 c7 3a 5a f3 ef bb 6e 2c bf bb
       -0.0041783135 0.0015241614 -0.007322711 -0.005834154
000300 81 ad 29 3d 80 ce d3 3c 28 87 38 bd 70 83 8e bd
       0.04142523 0.025855303 -0.04505077 -0.069586635
000310 d4 ff d5 3a ed 1d aa bc 87 5e cb bc 29 0d 17 bb
       0.0016326853 -0.020766223 -0.024825348 -0.0023048616
000320 44 5c df bc ec a5 25 bc f6 50 65 bb 65 5b d7 39
       -0.027265675 -0.01011036 -0.0034990883 0.0004107609
000330 18 06 ef bb 81 c8 a6 bb 1b 0d 98 bc de 65 d5 3b
       -0.0072944276 -0.00508982 -0.018560937 0.0065123877
000340 a0 20 80 3c 64 8f 0a bd f3 93 1c bd 80 76 14 bc
       0.015640557 -0.033828154 -0.038227033 -0.009061456
000350 8b b2 44 3c 15 74 9b bc a0 1f 33 bc d0 ef f6 bc
       0.012005459 -0.01897625 -0.010932833 -0.030143648
000360 5a 8e 13 bd 74 fb 50 bc 91 13 11 3c 87 51 89 3b
       -0.03602443 -0.012755264 0.008854763 0.004190627
000370 69 df b8 bb 78 fd 41 3c d1 48 df bc 49 68 0d bd
       -0.005641867 0.011840217 -0.027256401 -0.034523282
000380 11 bb 5d bb 59 16 cd bc 9e 20 08 3c 6c 6f 59 3c
       -0.0033833424 -0.02503507 0.008308558 0.013271194
000390 b0 68 92 bc 8b 10 84 3b e7 99 20 bd 74 54 c8 3a
       -0.017872185 0.0040302924 -0.039209273 0.0015283958
0003a0 00 5d b4 bc c6 3c 17 3b 20 f9 c8 bc 24 ad 8a bc
       -0.022017002 0.0023076995 -0.024532855 -0.016928263
0003b0 65 e9 42 3d 7f 93 7e bd 06 53 11 bb a2 58 6c 3c
       0.047585864 -0.062152382 -0.002217473 0.014425429
0003c0 06 bc 84 bb ab 97 61 3d 99 1e 31 3d 21 72 0a 3d
       -0.0040507345 0.055076282 0.04324207 0.033800248
0003d0 e6 9e ad bc 2e c7 61 bd 13 55 1b bd 82 db 13 bd
       -0.021193933 -0.055121593 -0.03792293 -0.03609801
0003e0 46 23 92 bb 37 c2 08 bc 4c 60 c5 3b 5a 66 c7 3b
       -0.0044597713 -0.008347086 0.0060234424 0.0060851993
0003f0 a7 cd dd bb 96 51 e3 3b 6f c7 6b bc c6 a9 a2 bc
       -0.0067689004 0.006937216 -0.01439081 -0.019856345

std.constant9 f4 [16, 5, 5, 1]
000000 22 87 8a bd c5 77 fd bc 49 88 de 3d 3e 98 cd bd
       -0.06764056 -0.0309409 0.10865838 -0.100388035
000010 55 40 e0 3d 5f 9a ba bd 36 bb 2a bd 9d 9e 44 3d
       0.1094977 -0.09111475 -0.041682445 0.048002828
000020 22 5d 21 3d d0 69 0d be bd f8 01 3e 49 c5 bc 3d
       0.03939546 -0.13809896 0.12692542 0.09217317
000030 da 95 a3 3d da 73 3c be 67 fa 3e 3e ba 72 91 3d
       0.07987566 -0.18403569 0.18650208 0.071019605
000040 25 a6 fa bd 5c a4 27 3d dc 37 fa 3c a5 7f 39 3e
       -0.12238721 0.04092823 0.030544214 0.18115099
000050 7d 6b 22 3e 43 3b ea 3d dd 96 21 be 23 da ee 3d
       0.15861316 0.114370845 -0.15780206 0.116627
000060 97 fb 1f be 00 87 04 3e 7d f0 24 3e 68 0f 93 bd
       -0.15623318 0.12942123 0.16107364 -0.07180673
000070 df db c9 bd ba 69 27 3e d7 38 1c 3e d0 65 81 bd
       -0.0985639 0.16348925 0.15256058 -0.06318247
000080 06 4b 19 be 40 3f 1a be cb 7c 31 bd 34 5c 67 bd
       -0.14970025 -0.1506319 -0.043331902 -0.056484416
000090 25 a5 28 3e 09 04 88 bd ed d7 fc bd 46 ff ac 3d
       0.16469248 -0.06641395 -0.12345872 0.08447127
0000a0 f5 e3 2f be a5 6b 40 3d 53 e5 2e bc cb 37 e5 bd
       -0.17176802 0.046977658 -0.010674792 -0.11192282
0000b0 9f 9d 11 3d e3 8a 93 bd 24 ea 56 bd b3 ef 73 3d
       0.03555071 -0.07204225 -0.052469388 0.059554767
0000c0 33 b5 48 be 4e 40 a8 3c 9f 7a 10 3e 20 cd 08 be
       -0.19600372 0.020538475 0.14109276 -0.13359499
0000d0 ca fc 3d 3e 82 8a 93 bd 31 90 19 be 8d a2 97 3d
       0.18553463 -0.07204153 -0.14996411 0.07404051
0000e0 9d 00 a7 bd e3 e4 b0 3d 28 8b 21 be ef c7 ec 3d
       -0.08154414 0.08637407 -0.1577574 0.11561572
0000f0 e6 5a 55 3d 2a 9d 22 3e 8b 2e 1d bd 4d 4a 39 3e
       0.05208864 0.15880266 -0.038374465 0.1809475
000100 a6 75 49 3c 3f 09 01 be 5d 7f 44 bd c0 d6 ba bd
       0.012296116 -0.12601183 -0.047973026 -0.091229916
000110 42 b3 fa 3d c0 a3 8b bd 0e fb e8 3d bb d0 ee bd
       0.12241222 -0.06818342 0.1137601 -0.11660906
000120 b2 91 21 3e a9 78 4c 3d 63 b3 85 bd de 94 0d 3e
       0.15778235 0.049919758 -0.06528356 0.1382632
000130 8e c4 1b be ec e8 22 3e 7d 84 4e be 63 f3 f4 ba
       -0.15211698 0.15909165 -0.20167728 -0.0018688258
000140 84 e2 12 3e b7 63 4d 3d 0f 90 d6 3d 9e 48 01 3e
       0.14344221 0.050143924 0.10476696 0.12625358
000150 07 14 21 bd 13 5d bf bd 2f 9e 98 be 6c 4f 67 be
       -0.03932574 -0.093439244 -0.29808185 -0.22588891
000160 c7 d9 83 be a7 c6 1c 3d b7 3a 20 3e a7 e8 9c 3d
       -0.25752088 0.038275387 0.15647398 0.076615624
000170 4c 04 44 3e e1 04 58 3e 35 a7 cf 3b 82 98 44 be
       0.19142264 0.21095611 0.0063370713 -0.19198802
000180 4a 09 9f bd d6 ca aa bb c2 bd 0c 3e 96 da 11 bd
       -0.077654436 -0.005212168 0.13744262 -0.03560885
000190 bf c2 98 3d bd c2 2b 3e 8e d0 69 3d 8e 8c 19 3e
       0.0745902 0.16773506 0.05708366 0.14995024
0001a0 59 9d 0f 3e d6 f5 17 bb cb 6d 00 3e 5f a5 0f be
       0.14024867 -0.00231873 0.12541883 -0.14027928
0001b0 c5 9f 06 3e 0e 96 dd 3c f4 05 e9 bd a5 0c ba bd
       0.13146885 0.02704909 -0.113780886 -0.09084443
0001c0 64 89 9b 3d 6e a6 12 be 69 69 9a 3d 84 d9 e2 3d
       0.075945646 -0.143213 0.07539637 0.11076644
0001d0 de af 4b be 2b 1b 56 be 85 37 b7 bd 96 f7 ef bd
       -0.19891307 -0.20908801 -0.089461364 -0.11717145
0001e0 ff 18 92 3d b9 99 8a 3d ef d1 11 3e 26 0d 2a be
       0.07133674 0.067676015 0.1424024 -0.16606578
0001f0 e5 91 1b be e2 5a d9 bd e0 c3 5d be 7d 37 c8 3d
       -0.15192373 -0.10613038 -0.21656752 0.097762085
000200 1b 6f 8e bd 38 49 4b be 91 fe 73 3d 6e e7 47 3e
       -0.069547854 -0.1985215 0.059568945 0.19521877
000210 7e f3 93 3c 19 0e 04 3e 30 34 ce bd d0 64 35 bd
       0.018060442 0.12896003 -0.10068548 -0.044285595
000220 2a bd 07 be 10 2d 5b be dd 82 4d 3d 7f 63 54 bd
       -0.13255754 -0.21403909 0.05017363 -0.0518527
000230 1a 74 22 be cd 05 39 be 82 c2 12 bd 65 17 fb 3c
       -0.15864602 -0.18068619 -0.03583003 0.030650804
000240 69 aa d8 3d 6b 55 1d 3e 50 13 61 3c b7 5b 2c 3e
       0.10579378 0.15364616 0.013737515 0.16831861
000250 24 04 9e 3d 4e 28 f1 3d 25 87 d4 bd 36 9a 0c be
       0.077156335 0.11775266 -0.10377339 -0.13730702
000260 41 42 04 3e d0 2c 1a be fc 9f eb bd c7 ad b4 3c
       0.12915899 -0.15056157 -0.11505124 0.02205552
000270 74 2d b8 3d ac 0e cf bd 99 6e 22 3c f1 34 cf 3d
       0.089930445 -0.1011022 0.009914064 0.1011752
000280 c7 a6 e8 bd 52 d0 e6 bb 8f 3b 18 be ca b6 70 bd
       -0.11359935 -0.0070438767 -0.1486647 -0.05876807
000290 a0 e9 e3 3c b8 b4 91 3d d2 1a c1 bd d7 a5 88 bd
       0.027821362 0.071145475 -0.09428944 -0.066722564
0002a0 84 fa dd 3d 85 22 84 3c b0 97 34 be 97 cf b9 bd
       0.10838798 0.016129741 -0.17635989 -0.09072798
0002b0 97 b5 4e be cf 79 a0 3d 77 7f ea 3d bb 82 65 be
       -0.20186459 0.07835733 0.11450093 -0.22413151
0002c0 aa 6d d7 3c 54 13 62 bc a6 20 0e 3e 43 80 3e be
       0.02629741 -0.0137985535 0.13879642 -0.18603615
0002d0 85 d2 13 be 3e 80 33 3e 65 7c c6 3d 0d d3 2e 3e
       -0.14435776 0.1752939 0.09691695 0.17072697
0002e0 92 91 2e 3e ab be 48 be 33 ff d0 3d 47 58 0d 3e
       0.17047718 -0.19603984 0.102049254 0.13803206
0002f0 54 61 b7 bd 3a 17 1a be d2 0e d6 3b f8 b2 a3 bd
       -0.08954111 -0.15047923 0.0065325284 -0.0799312
000300 22 11 fc 3d 87 74 d8 bd b4 1d 75 be 75 f9 05 3e
       0.12307955 -0.10569101 -0.23937112 0.13083442
000310 c5 86 d8 bc e7 be 79 3d bf 1e 30 be 92 7b d7 bd
       -0.02643145 0.060973074 -0.17199229 -0.10521616
000320 51 d7 a0 3d af 09 01 3d 84 0a ad 3d 1d 7b 11 be
       0.07853568 0.031503376 0.08449271 -0.1420712
000330 01 17 2d 3c cb d0 5f 3d b2 18 c7 bd 7e 00 8e 3d
       0.010564567 0.05464248 -0.09721507 0.069336876
000340 33 20 84 bc e1 df e3 bd 72 12 1b 3e 38 b4 2f be
       -0.016128635 -0.11126686 0.15143755 -0.17158592
000350 18 39 8a bd e5 26 0b bd 75 0e d2 bc d7 0d 26 3e
       -0.06749171 -0.03397264 -0.02564166 0.16216217
000360 6e 36 9d 3d ac 82 1e 3e d5 17 4f be 7b 06 4f 3d
       0.07676397 0.15479535 -0.20223935 0.05054329
000370 00 78 1d bd 27 d5 82 3c 88 d4 a0 3d e0 11 15 3e
       -0.03844452 0.01597078 0.07853037 0.145576
000380 01 ee 4d be c7 c8 87 bd aa 04 00 be 45 94 36 3d
       -0.20110323 -0.06630092 -0.12501779 0.044574995
000390 20 a6 80 3d e1 2e b3 3d 6a c0 ce bb d6 a2 6e bd
       0.06281686 0.08749176 -0.0063095586 -0.05826076
0003a0 0b a5 2a be 16 cb 61 3d 9e 7d 8b bd 7d e1 3a be
       -0.16664521 0.05512532 -0.06811069 -0.1825008
0003b0 d2 a4 0c 3e 92 1a 4b be f2 d4 1c bd f4 b5 c5 bd
       0.13734749 -0.19834355 -0.038289018 -0.096538454
0003c0 0b 08 1c 3d 73 de 0f 3e 5f d8 62 3e 07 1d d1 3d
       0.038093608 0.14049701 0.22152852 0.10210615
0003d0 dc 7a bb 3d bb ff 4d 3e d2 ff 36 be f1 92 2a be
       0.09154293 0.20117085 -0.17871025 -0.16657616
0003e0 93 e1 27 be a8 d8 a8 3d 89 4f 37 be a2 bc 2e 3c
       -0.16394643 0.08244449 -0.17901434 0.010665091
0003f0 fd 27 3d 3e 27 b3 ae bd 5a 98 a4 bd 5e cd 1d be
       0.18472286 -0.08530264 -0.08036871 -0.15410373

std.constant10 f4 [32, 5, 5, 16]
000000 b8 ae c1 ba 1a c7 21 bb 86 13 bd bb c3 79 a0 3c
       -0.0014776802 -0.0024685324 -0.0057701496 0.01958931
000010 96 f5 8b bd 1d 54 7b 3c ba 4d ef bc 33 71 17 3b
       -0.06833951 0.015339878 -0.029211868 0.0023108243
000020 23 f4 01 bd 50 9d 87 ba da 85 a4 bb 9a 18 4a bc
       -0.031726968 -0.0010346565 -0.005020839 -0.012334967
000030 c7 63 a4 3b ce 5d 2c bd 31 63 f5 bc b5 b1 03 bd
       0.005016777 -0.042081647 -0.029954525 -0.032151897
000040 05 85 b1 3c 07 17 a4 3c c3 e1 bd 3c f8 b0 c4 39
       0.021669874 0.020030512 0.02317894 0.00037515885
000050 fb e8 39 ba d7 5c 8c 3c ba a6 12 3d 00 53 ce bc
       -0.0007091907 0.017134113 0.035803534 -0.025186062
000060 12 87 86 bd 65 8f 33 bc aa 65 f0 bc b7 55 c8 3c
       -0.06568731 -0.010959481 -0.029345352 0.024454935
000070 12 44 45 bd c4 d4 c2 3c 9a 1e fe 3b 23 f0 84 bb
       -0.04816062 0.023783095 0.007755113 -0.004056947
000080 0f fd 29 bd 9a 11 2f 3b d5 4e c8 bc aa 4f 21 bd
       -0.0415011 0.0026713372 -0.024451653 -0.039382614
000090 6c 9d 32 bd 20 97 5a bd 3d 26 bc 3c ad 91 d9 bc
       -0.04360716 -0.05336678 0.022967452 -0.026558721
0000a0 a4 9c c6 3c e8 1c 0c bd 35 0a 61 bd cd 10 f6 b9
       0.024244614 -0.034207255 -0.054941375 -0.00046933294
0000b0 76 72 e2 3b da 09 5c 3c 87 f4 20 3c 2d f4 1b bd
       0.0069106175 0.013430083 0.009823925 -0.03807466
0000c0 c7 d3 4a 3c 60 e6 ed 3c c0 99 e5 3b 57 80 98 3c
       0.012379593 0.029040515 0.007006854 0.018615885
0000d0 60 cd d8 3c e7 52 8e 3c 77 0d 81 bc 67 8c c4 3b
       0.026465118 0.017373515 -0.01575349 0.0059981826
0000e0 57 05 e2 3c 63 c4 b0 bc df 5c 33 bd 7a 17 35 bd
       0.027590437 -0.02157802 -0.04378974 -0.044211842
0000f0 22 ac 46 bd 6a 81 86 3c 60 25 44 3c 2d 73 2f 3c
       -0.048504002 0.016419131 0.0119718015 0.010708612
000100 70 8f a1 bc ab 26 30 3d 1d 84 94 3c e7 13 2a 3c
       -0.019721717 0.043005627 0.018129403 0.010380722
000110 67 b0 04 bb 40 2f f5 3c 38 ac 48 3d 92 01 33 bd
       -0.0020246746 0.029929757 0.048992366 -0.04370267
000120 82 3d 05 3d 93 fa 17 bc 0d 54 b3 3c 73 b9 df bb
       0.03252936 -0.00927605 0.021890664 -0.006827527
000130 dd 23 af bc ed 57 8b 3c cd 66 31 bc dd 68 34 bd
       -0.021379406 0.0170097 -0.010827732 -0.044045318
000140 e6 5e 66 bd 38 86 1b bd cd 71 4c 3c 33 e5 02 bd
       -0.056242846 -0.037969798 0.012478304 -0.031956863
000150 93 60 68 bd 8f c2 b0 bb 2a cd c9 bc ed aa 4d bd
       -0.056732725 -0.005394287 -0.024633963 -0.050211836
000160 32 ef 8a bd 21 e0 28 bd 8f 29 a2 bb e3 39 b1 3c
       -0.06783904 -0.04122937 -0.004948802 0.021634048
000170 83 8d 26 3c 7b 0b 43 bd 59 bb 93 bd 15 65 26 3c
       0.010165575 -0.04761837 -0.07213468 0.010155936
000180 e2 a7 49 bc 9a bd 67 bc f5 cb 38 3d 4f 71 17 bd
       -0.012308093 -0.014144326 0.045116384 -0.036973294
000190 73 39 1e bd 3c 6f 37 bd fa b5 33 3d ea a7 c2 ba
       -0.038629007 -0.044783816 0.04387472 -0.0014851068
0001a0 b8 ff 42 bd d7 21 72 bd 6b e5 64 bd db 9a 34 bd
       -0.047607154 -0.059114303 -0.055882853 -0.044092994
0001b0 ec c1 2b bd 4d 0c 8f 3c 52 92 80 3c 87 c8 11 3c
       -0.041932985 0.01746192 0.015694771 0.008897907
0001c0 1a 2b 1e bd 62 7d 86 bd 38 fa 05 bd 77 7f 15 3c
       -0.038615324 -0.065668836 -0.03270933 0.009124628
0001d0 ca 44 fc bc a8 34 a8 bb e7 31 3c 3c 9e 30 94 bd
       -0.03079452 -0.0051332302 0.011486507 -0.072358355
0001e0 99 b0 66 bd 15 a1 19 bd 20 ee 66 bd 4e aa f5 bc
       -0.05632076 -0.037507135 -0.056379437 -0.029988434
0001f0 2f ba 5a bd 57 6e ec 3c 7a e0 50 3c 72 b2 ba bc
       -0.053400215 0.028861208 0.012748832 -0.022790167
000200 8a c1 da 3c 8a 78 ed bc 47 92 34 3c 33 1d 1b bd
       0.026703615 -0.028988142 0.011021203 -0.037869643
000210 4b 60 3f bd 6f 46 10 3d 13 be 0a 3d 53 6b fa bc
       -0.04672269 0.03522342 0.033872675 -0.030568754
000220 00 ae 07 bd fd ab 9d 3c 60 f8 6a 3c 82 80 4c 3d
       -0.033124924 0.01924705 0.014341444 0.049927242
000230 77 c9 4a bd 30 30 05 3d 37 24 23 bd 03 c4 f1 3c
       -0.049508538 0.03251666 -0.03982946 0.029512411
000240 8f c6 23 bd c7 fa 9e 3c 1a 66 67 bc 67 9e 98 3a
       -0.039984282 0.01940669 -0.014123464 0.0011643887
000250 cd da 4d bc 20 4c 24 bd e0 7f 45 bd 77 f7 30 3d
       -0.012564373 -0.04011166 -0.048217654 0.04320475
000260 aa fe d9 bc 88 09 39 3d 6d 32 09 bc 32 09 38 3d
       -0.026610691 0.045175105 -0.008373839 0.044930644
000270 50 13 86 bc 33 80 37 bb 87 07 04 3c 2d 0a ff 3c
       -0.01636663 -0.0027999997 0.008058435 0.031132782
000280 a7 3e 86 3c e5 43 ce bc a0 7e 71 bc 93 c2 30 bd
       0.016387297 -0.025178859 -0.014739662 -0.04315431
000290 f9 5c 7e bd 7b c1 10 3d 60 60 41 3c 3b a6 a5 3c
       -0.062100384 0.035340767 0.011802763 0.020220866
0002a0 66 07 1e bd ee 65 25 bd dc cc 4b 3c e0 b7 53 bc
       -0.038581274 -0.04038041 0.012438979 -0.012922257
0002b0 c4 48 11 bd 6b da 30 3d 6b 60 11 bd 3e 7e 6a bd
       -0.035469785 0.04317705 -0.035492342 -0.0572493
0002c0 22 cb 10 bb 0c 26 38 bd fa 66 fd bc 40 3c 34 bc
       -0.0022093733 -0.04495816 -0.030932892 -0.011000693
0002d0 60 f1 91 bc 73 53 1d bd 97 5a 9a bc 15 57 cb 3c
       -0.017815292 -0.03840966 -0.018842025 0.024821797
0002e0 f1 53 7f bd c7 7d 8f bd 99 72 b1 bb b3 0e bc 3c
       -0.062335912 -0.07006412 -0.0054152724 0.022956228
0002f0 5a 9c 8b bd 33 be cf ba 66 90 87 bc d8 0b 93 bd
       -0.06816931 -0.001584953 -0.016548347 -0.071799934
000300 53 eb 71 bc bd 17 76 3b 8f c2 9b bc e2 09 a7 bc
       -0.014765578 0.003755077 -0.019013671 -0.020390455
000310 d2 ba 21 bd 12 85 1c bb 2d 80 6b 3c 94 4a 8a bd
       -0.039484806 -0.0023883027 0.014373821 -0.06752506
000320 8c 3b 5b bd 56 b3 ef bc 93 12 f2 bc 5d b0 01 bd
       -0.053523585 -0.029260319 -0.029549873 -0.031662334
000330 dc 74 90 bc 73 08 f6 3b 33 85 ce 3c db 77 4d 3c
       -0.017633848 0.0075083314 0.025209999 0.012540783
000340 10 3b ee 3c c8 af 09 bd ff 5a 17 bd 67 c7 87 bc
       0.029080898 -0.033614904 -0.036952015 -0.016574575
000350 33 60 9a bb 37 e1 94 bc c7 5c bb 3c 80 9b 8a bc
       -0.004711175 -0.018173797 0.022871388 -0.016919851
000360 4f b7 13 3d f2 d5 33 bd fa 37 df bc 0d 3f 92 bb
       0.03606349 -0.043905206 -0.027248371 -0.0044630826
000370 10 36 c1 3c 97 fb 49 bd 03 37 d3 bc 73 01 2c 3d
       0.02358535 -0.0493122 -0.025783068 0.04199357
000380 c3 f9 e5 3c d0 c9 9b bc d7 4d b0 bc 93 f9 0e bd
       0.028073197 -0.01901713 -0.021521492 -0.03490598
000390 0d 31 c6 bc e0 f0 97 bc 9a 7b 80 3a f2 ec 4b 3d
       -0.024193311 -0.018547475 0.0009802461 0.049786516
0003a0 87 04 34 3c 6a 0d 1e 3d d2 10 12 bd 03 fa 36 3d
       0.0109874075 0.03858701 -0.035660572 0.044672024
0003b0 8f d6 25 bd 88 53 05 3d 2d 00 64 3c d5 4d 3d 3d
       -0.040487822 0.032550365 0.013916058 0.046216805
0003c0 7a e4 3b 3d 77 e8 15 3c 20 7a a2 3c 1d d4 93 bd
       0.04587219 0.009149662 0.019833624 -0.07218192
0003d0 2f 4d e6 bc 50 54 bc bc 6c 80 d1 bc f2 cd 2f bd
       -0.028112976 -0.022989422 -0.025573932 -0.042921014
0003e0 3a fa 31 bd 59 a6 77 bb 2d 67 22 3b bb 96 90 3c
       -0.043451525 -0.003778836 0.0024780736 0.017649999
0003f0 f9 95 58 3c 9d 91 da 3c 44 23 7c bd 53 b6 19 3c
       0.01321935 0.026680762 -0.06155707 0.009381848

std.constant11 f4 [64, 5, 5, 32]
000000 0f 63 80 3c 35 0f bd bc 45 c5 9f 3c 1e 4c cf bd
       0.015672235 -0.02307854 0.019503245 -0.1012194
000010 1c 9c 70 bc f5 ae 1d bd c3 9f 89 bc 7d f9 e7 3c
       -0.014685657 -0.03849693 -0.016799813 0.028317207
000020 77 16 01 bd 58 5a e9 bc 83 14 98 bd 31 b4 85 3c
       -0.031515565 -0.028485462 -0.07425787 0.016321274
000030 29 05 52 bd 7e 44 fe bc 0d 45 9f ba d3 df 72 bc
       -0.051274452 -0.031038519 -0.0012151316 -0.014823872
000040 b4 5e 8c 3c 76 2e 7f 3c cd 5f 57 bc 20 8d 44 3c
       0.017135002 0.015575042 -0.013145399 0.011996537
000050 da 86 b3 bc 84 46 8b 3c 56 da 20 bc 67 5b 23 3c
       -0.021914888 0.017001398 -0.00981768 0.0099705225
000060 eb 6a 32 bd 35 dd 10 39 d6 7c 87 bd c8 c5 0c 3c
       -0.043558996 0.00013815316 -0.066156074 0.008592077
000070 b4 03 07 3d a1 f6 7c bc f6 6b 95 bd 03 8b f5 bc
       0.032962516 -0.01543966 -0.072959825 -0.029973513
000080 52 93 7f bc e2 b4 db 3c 95 0a 9b 3c 9a 13 8f bb
       -0.015599089 0.02681965 0.018925944 -0.0043663504
000090 50 fb d1 bc d8 a6 b1 bc 2b d1 76 3a c7 c0 0f bd
       -0.02563253 -0.021686003 0.0009415324 -0.035095956
0000a0 1d 38 89 3d 80 6c 97 bc b6 ea a1 bd 48 3c 67 3c
       0.06700156 -0.018484354 -0.07906096 0.014113493
0000b0 4c b4 68 bd ed fc 98 bb 7b cf 8e 3c 53 fc f7 3c
       -0.05681257 -0.004668823 0.017432919 0.030271685
0000c0 9d a9 b3 bc c1 53 83 3b 84 9d 71 bc 27 7b 77 bb
       -0.021931464 0.004007787 -0.014747027 -0.0037762614
0000d0 2f 81 29 3d e8 f5 86 3d 27 19 d4 bc 50 5f 41 3c
       0.041382965 0.06589872 -0.0258909 0.011802509
0000e0 43 53 e9 bc 5f 02 c2 3b e9 ba 8c bd 44 b7 c4 bb
       -0.028482085 0.005920693 -0.06871588 -0.0060032923
0000f0 81 40 0c 3d 38 ca 04 bd 83 ce 74 bd 72 5a b8 3d
       0.034241203 -0.032419413 -0.059767257 0.09001626
000100 0c d8 7a bb 90 71 9f bc 17 ef 3e 3d 87 af 6a 3c
       -0.0038275747 -0.01946333 0.046614733 0.014324076
000110 fd 08 10 bc d1 2c 49 bd 1f 35 0e 3d 78 f9 a0 3c
       -0.0087912055 -0.049115006 0.03471863 0.019650206
000120 f2 45 49 3d f6 7d a8 3c 0c 8b 00 bd 1a 47 14 3c
       0.04913897 0.020567875 -0.031382605 0.009050155
000130 88 94 75 b9 bd 50 7a bc 44 92 f3 3b f9 78 7c bd
       -0.00023420353 -0.015278039 0.0074332077 -0.061638806
000140 82 2e ca bc 0b 9c 9a bc fd cb bc bc 5e ec dd 3b
       -0.02468038 -0.018873235 -0.023046488 0.006772562
000150 4b 5c d9 bc ef dd 1c 3c ca 85 a6 3b 17 9b 82 bd
       -0.026533267 0.0095743975 0.005081867 -0.06377237
000160 d9 89 0d 3c c8 b2 aa 3b bb 3d 95 bd 08 91 cb 3c
       0.0086388225 0.0052093007 -0.07287165 0.02484943
000170 d2 b7 f5 bc 36 5c 99 3c 80 9e bb bd d9 a0 34 3c
       -0.029994879 0.018720727 -0.09161091 0.011024677
000180 dc af 0a bd da fe a0 3c b3 c8 87 3d 6d 83 46 bd
       -0.03385912 0.019652773 0.06630077 -0.04846518
000190 27 3a d7 3b 77 82 43 bd 80 87 11 3a 1b 40 45 bc
       0.0065682116 -0.047731843 0.0005551502 -0.01203921
0001a0 89 76 11 3d 62 4f d4 bc f0 75 c0 bd 58 4e 8f bc
       0.035513435 -0.025916759 -0.09397495 -0.017493412
0001b0 4b a9 3b bc 7f cf 1b 3c 55 6a af bc 7c 52 82 bd
       -0.011453937 0.00950992 -0.021413008 -0.06363389
0001c0 19 b0 1b bd 04 83 66 bd 5e 34 70 3c d5 58 67 bc
       -0.038009737 -0.05627729 0.014660923 -0.0141203
0001d0 e3 ef 9b bd ae 10 c5 3c 34 73 ac bc ac 12 01 be
       -0.07614114 0.024055805 -0.021051027 -0.12604779
0001e0 c2 cf 80 3b 33 83 f4 3c c8 12 11 bd d0 a6 86 bc
       0.0039310167 0.029847717 -0.0354183 -0.016436964
0001f0 15 f2 e8 bc 3c f9 e8 bc cb 5c ad bd f2 93 87 bc
       -0.028435746 -0.028439157 -0.084649645 -0.016550038
000200 1d 82 fc 3c 0a a4 da bc 8c b1 97 3d 01 bd 34 be
       0.030823762 -0.026689548 0.07406911 -0.17650224
000210 c3 96 3c 3c bd 47 c2 bc 32 b7 84 3a 97 70 f6 bb
       0.011510554 -0.023715848 0.0010125397 -0.007520746
000220 12 a3 86 3d 84 81 81 3a c0 c7 f4 b8 d4 88 0b 3c
       0.06574072 0.0009880518 -0.00011672033 0.008516509
000230 30 5e 1f bb c0 d3 b5 3c b4 1d 0c bd 60 19 2d 3c
       -0.0024317615 0.022195697 -0.034208015 0.010565132
000240 0a 37 ac 3c f1 55 e7 3a 75 9d 8f ba 2c bb b5 3c
       0.021022338 0.0017649514 -0.001095696 0.022183977
000250 f6 42 4d 3c ec ac 35 3c 7e a7 b1 bb b7 f4 a3 bd
       0.012528172 0.011088591 -0.005421578 -0.0800566
000260 a4 82 8f bc 14 6f ce bb c2 6f 81 bd 9c 96 d3 bb
       -0.017518349 -0.0062998626 -0.06320144 -0.006457163
000270 c4 5d 3c bd b5 27 af bb 97 09 86 bd 80 51 19 bd
       -0.04598786 -0.0053453096 -0.06544798 -0.03743124
000280 48 19 b4 bc 9f 7f 7e 3c 6b da 28 bc 31 0d bd bc
       -0.021984711 0.015533357 -0.010305981 -0.02307758
000290 90 62 80 bc f8 c1 71 bd 33 37 37 3d c8 0a 81 bc
       -0.015671998 -0.059022874 0.044730376 -0.015752211
0002a0 2d 89 66 3d 56 af 0d 3d 96 a1 b4 bc 13 bd 1e bc
       0.056283165 0.03459104 -0.022049706 -0.0096886335
0002b0 d2 97 22 3c 2a e2 2d bc 16 9b 8f 3c 67 1d c8 3b
       0.009923892 -0.010613004 0.017530005 0.0061070207
0002c0 17 95 22 bc 63 71 41 bd 09 08 e2 3b 93 25 a1 bc
       -0.009923241 -0.047227275 0.0068979305 -0.019671237
0002d0 7e ad 33 bd e7 78 f6 3b 81 a4 8f 3d 85 04 fc bd
       -0.043866627 0.007521737 0.070137985 -0.123055495
0002e0 bd e2 83 3b 54 70 d3 3c 25 5f f5 bc ed ab 0e bd
       0.004024832 0.025810398 -0.029952595 -0.03483193
0002f0 f9 ca c3 bc 09 d5 0a bd b5 10 b6 bd d5 bb f4 bc
       -0.023900496 -0.033894572 -0.08889905 -0.029874722
000300 2e ee 98 3c 87 91 e6 bb 32 8f 91 3d f6 f3 41 be
       0.01866826 -0.007036391 0.071073905 -0.1894072
000310 6b 86 9a 3b 2e 68 f3 bc 32 66 33 3d 65 86 9f 3c
       0.004715731 -0.029712763 0.043798633 0.019473264
000320 ff 96 5f 3d f0 aa 10 3d d1 10 40 3c 46 c6 a0 3c
       0.05458736 0.03531927 0.011722759 0.019625794
000330 87 22 7b 3d 65 e6 02 bd e2 a4 5d bc 28 09 05 bc
       0.061312225 -0.031958003 -0.013528081 -0.008119859
000340 e1 4f 03 bc 28 78 7c bd fa 95 0a 3c a2 52 ab 3c
       -0.00801465 -0.061638027 0.008458609 0.020913426
000350 05 76 0c 3c 00 1d 01 3c 9e ba fa 3c 68 a7 fd bd
       0.00857306 0.007880449 0.030606564 -0.12385446
000360 1c b2 65 bd 28 60 a5 3c 8e 53 90 3d 05 9e ec bb
       -0.05607806 0.020187452 0.07047187 -0.007220986
000370 a9 5f df bb 65 66 e8 3b c2 90 c5 bd a2 b4 c1 38
       -0.0068168235 0.0070922845 -0.09646751 9.236603e-05
000380 26 ec 0a 3c ce 5a c1 3c ba df 99 bc c5 73 25 be
       0.008479154 0.02360287 -0.018783439 -0.16157444
000390 8f 85 5d bc 51 f7 a0 bc 35 77 de 3c 66 d2 4c 3c
       -0.013520612 -0.01964918 0.027156452 0.012501335
0003a0 c9 90 c1 3c 03 20 84 3c cd c0 d1 3d e5 e0 e3 bc
       0.02362861 0.016128546 0.10241852 -0.027817199
0003b0 00 e3 8f 3d f1 a9 84 bc 96 90 97 bc bb dd 1f bc
       0.07025719 -0.016194316 -0.018501561 -0.0097574545
0003c0 26 95 16 bd 6b 13 5d 3c 95 77 a2 3c 37 72 95 3c
       -0.036763333 0.013493399 0.019832412 0.018242938
0003d0 84 27 c2 bd ce aa 26 bd 03 8b 47 3c 3e 23 42 3d
       -0.09480193 -0.040690236 0.012179139 0.04739689
0003e0 33 bf 8e bc e2 22 94 bb 4b d8 ba 3d f1 9f d3 bb
       -0.017425155 -0.00452076 0.09123286 -0.0064582755
0003f0 df 6a ce ba 70 c2 e3 3c 8f ae 11 bc a6 84 3b bd
       -0.0015748403 0.027802676 -0.008891716 -0.0457808
